arkhe-os-genesis-v1.0/config/glp/model.pt (torch, 850571 bytes, 28 tensors)

embedding.weight f4 [1000, 64]
0.085793175 1.1126531 1.3141884 1.1195253 -0.8874256 -1.5490391 -0.7025949 0.44388765
0.56177884 -0.6863186 1.5639418 -0.035075445 0.62822497 -0.5622776 -2.1158152 -0.80430305
-0.26782227 1.0127095 -1.1438973 0.7132084 0.45252216 2.6804147 1.4619011 0.36058855
-0.5665277 0.14044516 -0.97032773 1.5591984 -1.4493613 0.9234145 0.30637062 -0.14732611
0.52337766 0.81255114 -0.18315884 -0.81190145 1.6130246 0.43578228 0.17673284 0.31558982
-1.1091528 0.23163773 -1.579951 0.6254212 -0.87024355 1.1835192 0.15967317 -0.30224538
-1.0985416 0.3599321 -0.5475553 -0.40585673 0.12029189 0.3424217 -0.73821086 1.3844781
0.31066868 0.7705454 -0.10899122 -0.40991232 0.33125663 -0.79895097 0.08493995 -2.0451686
-1.0581511 -0.53373975 -0.6644414 -0.1989764 -0.7811581 -0.1859558 1.0314138 0.064675726
0.79478014 0.020390144 -0.79563165 0.5219951 -1.5356146 -0.4956475 -1.1662782 1.0287058
-1.2271146 0.8399587 -1.7761815 1.4708493 0.28085613 -0.11748353 -0.90716845 0.918971
0.050450154 0.2120975 -0.89999974 -0.42389467 0.031486705 -0.31922615 1.7483555 0.79018927
-1.2407168 -1.0913881 0.62783784 0.81688344 2.0031226 -0.7839652 0.99069077 -0.69072914
0.6929714 -0.7115389 -0.8412698 0.17582494 1.5592474 0.31354254 1.4158417 0.7023475
0.28713074 -0.32432893 0.5066217 0.4870662 0.5476344 1.3423955 0.2826385 -0.89879006
1.2675663 -1.0725914 -0.31292555 -0.94748056 1.6713852 -0.95984334 -0.40505937 0.37969017
2.311305 -0.586251 1.1240809 -0.061170127 -0.06605869 0.14573316 0.89791876 0.4113408
0.026157819 -0.4496943 -0.038206365 0.048888408 0.20858765 0.08215063 0.34769508 -0.6563463
1.0025492 0.5804611 -0.316506 0.06320243 1.756999 -0.036707222 -0.37575936 1.1872451
1.008191 1.6432321 0.22131348 0.830044 0.71668875 -1.093111 1.0736617 1.251852
-0.2995924 -0.07239666 1.317068 -0.5650414 -1.2825196 0.93677115 -1.9912546 0.8180713
0.14036824 0.590696 0.7352221 0.6443984 -1.5777208 0.4513744 -1.1342701 2.181256
-0.858577 -0.53708786 -1.2610978 -1.727772 1.0194379 -0.22247231 0.081526004 0.20537888
-0.23726921 0.27474383 -0.022649847 1.0157473 0.59042287 2.1178887 -1.4070678 -0.7872477
-1.0613456 -0.1802446 0.5890765 -0.2783273 -0.62760663 1.5518901 0.36327264 -3.029045
-0.17492032 0.1665575 -1.1344008 -0.15743777 1.2963827 -1.2634166 -0.55210876 0.15898262
-0.5999269 -0.88455766 -1.0317245 -0.75362766 -0.4516431 -1.2257773 0.30124637 -1.4530568
0.17997372 0.0064692413 -1.4944006 -1.0636979 1.5317497 0.3418314 -1.917877 -0.2809427
-0.7523594 -0.42032975 0.48177233 -0.05011036 1.398692 1.1492035 -0.10463805 -0.8562978
-0.55680996 1.236461 -0.9820214 0.3278777 -1.5423592 -2.261243 0.6215694 0.41441652
0.9685188 -0.7545124 -1.4516187 0.73198617 0.59686375 0.5848482 -0.32991084 -0.19901693
0.33509356 -0.09790675 1.2915896 -0.41960552 0.817351 0.50377315 0.7597038 1.2934254
00000000: 55b4 af3d 6b6b 8e3f 5337 a83f 9b4c 8f3f
00000010: 532e 63bf ea46 c6bf 42dd 33bf 3e45 e33e
00000020: bdd0 0f3f 93b2 2fbf 3f2f c83f 45ab 0fbd
00000030: 5ad3 203f 6df1 0fbf 8469 07c0 cee6 4dbf
00000040: 0020 89be 77a0 813f 3a6b 92bf d394 363f
00000050: fcb0 e73e ea8b 2b40 931f bb3f 109f b83e
00000060: f607 11bf dbd0 0f3e 6667 78bf d093 c73f
00000070: ac84 b9bf e564 6c3f 9cdc 9c3e a8dc 16be
00000080: 14fc 053f 5a03 503f fe8d 3bbe c6d8 4fbf
00000090: 9777 ce3f db1e df3e 74f9 343e fd94 a13e
000000a0: b8f8 8dbf 7132 6d3e d63b cabf 9b1b 203f
000000b0: 48c8 5ebf 8f7d 973f 5d81 233e e8bf 9abe
000000c0: 039d 8cbf 0549 b83e 962c 0cbf 74cc cfbe
000000d0: 985b f63d e651 af3e 63fb 3cbf 9436 b13f
000000e0: f70f 9f3e 7742 453f ca36 dfbd 07e0 d1be
000000f0: 789a a93e 0d88 4cbf fff4 ad3d 0be4 02c0
00000100: 7f71 87bf 2ba3 08bf d518 2abf 78c0 4bbe
00000110: faf9 47bf 326b 3ebe 5e05 843f b574 843d
00000120: b676 4b3f 3b09 a73c 84ae 4bbf 79a1 053f
00000130: 058f c4bf 82c5 fdbe 9b48 95bf a2ac 833f
00000140: 1712 9dbf 8907 573f ea59 e3bf ca44 bc3f
00000150: 60cc 8f3e 349b f0bd 313c 68bf af41 6b3f
00000160: d2a4 4e3d 1630 593e 6266 66bf b908 d9be
00000170: 34f8 003d 9c71 a3be 1dca df3f d849 4a3f
00000180: cfcf 9ebf 9bb2 8bbf fbb9 203f 461f 513f
00000190: 2933 0040 f1b1 48bf e99d 7d3f a0d3 30bf
000001a0: 9366 313f 6a27 36bf 755d 57bf 740b 343e
000001b0: 6b95 c73f a688 a03e 4d3a b53f 0ccd 333f
000001c0: cd02 933e 710e a6be f6b1 013f be60 f93e
000001d0: c531 0c3f 9ed3 ab3f feb5 903e 1b17 66bf
000001e0: 9d3f a23f ad4a 89bf c737 a0be 168e 72bf
000001f0: f3ef d53f 4bb8 75bf f163 cfbe c066 c23e
00000200: 6cec 1340 8c14 16bf e2e1 8f3f 878d 7abd
00000210: c749 87bd 133b 153e 01de 653f 439b d23e
00000220: ec48 d63c 553e e6be 477e 1cbd 363f 483d
00000230: 0098 553e 973e a83d 1705 b23e 5006 28bf
00000240: 8853 803f 1999 143f 130d a2be 4770 813d
00000250: 58e5 e03f 505a 16bd 8863 c0be a6f7 973f
00000260: 670c 813f 6e55 d23f 00a0 623e c37d 543f
00000270: ea78 373f 10eb 8bbf bf6d 893f b03c a03f
00000280: 2d64 99be b344 94bd af95 a83f 8ea6 10bf
00000290: 9a29 a4bf 3cd0 6f3f 6ee1 febf 1f6d 513f
000002a0: b1bc 0f3e da37 173f 8437 3c3f 4bf7 243f
000002b0: c1f2 c9bf 8c1a e73e c32f 91bf b399 0b40
000002c0: b4cb 5bbf 977e 09bf a76b a1bf a227 ddbf
000002d0: f17c 823f c8cf 63be 1bf7 a63d d74e 523e
000002e0: b3f6 72be 39ab 8c3e 2c8c b9bc 0204 823f
000002f0: f425 173f 7d8b 0740 cc1a b4bf 1189 49bf
00000300: 2cda 87bf 0a92 38be b8cd 163f ea80 8ebe
00000310: d4aa 20bf 56a4 c63f dffe b93e e0db 41c0
00000320: 501e 33be 0d8e 2a3e 0c34 91bf 5e37 21be
00000330: deef a53f a3b7 a1bf 0057 0dbf 57cc 223e
00000340: cf94 19bf 5f72 62bf 8c0f 84bf beed 40bf
00000350: c43d e7be 45e6 9cbf f73c 9a3e c4fd b9bf
00000360: 084b 383e eefb d33b 8548 bfbf 4127 88bf
00000370: 6010 c43f 8604 af3e fe7c f5bf b9d7 8fbe
00000380: a09a 40bf 7635 d7be ddaa f63e 8540 4dbd
00000390: 5708 b33f 1a19 933f 794c d6bd 5536 5bbf
000003a0: 198b 0ebf 5b44 9e3f c165 7bbf 96df a73e
000003b0: 076c c5bf 35b8 10c0 2c1f 1f3f 672e d43e
000003c0: d9f0 773f ba27 41bf a4ce b9bf 7263 3b3f
000003d0: 10cc 183f 9db8 153f 13ea a8be 18cb 4bbe
000003e0: 6291 ab3e 5683 c8bd cf52 a53f 89d6 d6be
000003f0: ea3d 513f 47f7 003f f37b 423f f78e a53f

hamiltonian.omega f4 [6]
0.5 0.33333334 0.2 0.125 0.07692308 0.04761905
00000000: 0000 003f abaa aa3e cdcc 4c3e 0000 003e
00000010: d989 9d3d 310c 433d

hamiltonian.coupling f4 [6, 6]
0.0 0.60653067 0.22313017 0.049787067 0.0040867715 7.485183e-05 0.60653067 0.0
0.36787945 0.082085 0.006737947 0.0001234098 0.22313017 0.36787945 0.0 0.22313017
0.01831564 0.00033546262 0.049787067 0.082085 0.22313017 0.0 0.082085 0.0015034392
0.0040867715 0.006737947 0.01831564 0.082085 0.0 0.01831564 7.485183e-05 0.0001234098
0.00033546262 0.0015034392 0.01831564 0.0
00000000: 0000 0000 9845 1b3f 3c7c 643e 86ed 4b3d
00000010: 53ea 853b c5f9 9c38 9845 1b3f 0000 0000
00000020: b25a bc3e 2e1c a83d ffc9 dc3b 9167 0139
00000030: 3c7c 643e b25a bc3e 0000 0000 3c7c 643e
00000040: ae0a 963c 08e1 af39 86ed 4b3d 2e1c a83d
00000050: 3c7c 643e 0000 0000 2e1c a83d 0c0f c53a
00000060: 53ea 853b ffc9 dc3b ae0a 963c 2e1c a83d
00000070: 0000 0000 ae0a 963c c5f9 9c38 9167 0139
00000080: 08e1 af39 0c0f c53a ae0a 963c 0000 0000

hamiltonian.wells.0.hermite_basis f4 [2, 256]
5.8674266e-07 7.309236e-07 9.089606e-07 1.1284097e-06 1.3984188e-06 1.7300409e-06 2.1366047e-06 2.6341486e-06
3.2419437e-06 3.983079e-06 4.8851853e-06 5.9812483e-06 7.3105716e-06 8.919882e-06 1.0864656e-05 1.3210557e-05
1.6035223e-05 1.943021e-05 2.3503291e-05 2.8381059e-05 3.42119e-05 4.116935e-05 4.945611e-05 5.9308124e-05
7.099979e-05 8.484938e-05 0.000101225174 0.00012055285 0.00014332276 0.00017009873 0.00020152814 0.00023835208
0.0002814174 0.00033168972 0.000390266 0.00045839406 0.00053748314 0.0006291301 0.0007351293 0.0008575043
0.0009985204 0.0011607184 0.0013469289 0.001560314 0.0018043774 0.0020830103 0.0024005137 0.0027616294
0.0031715776 0.003636084 0.0041614166 0.0047544134 0.005422523 0.0061738277 0.007017075 0.007961711
0.009017908 0.010196551 0.011509314 0.012968634 0.014587731 0.016380602 0.018362023 0.020547545
0.022953445 0.025596725 0.028495062 0.031666745 0.035130627 0.038906034 0.0430127 0.047470637
0.052300032 0.057521153 0.06315413 0.0692189 0.075734906 0.082721084 0.09019549 0.09817531
0.106676355 0.11571317 0.12529856 0.13544343 0.1461566 0.15744455 0.16931106 0.18175723
0.19478102 0.20837723 0.22253713 0.23724842 0.25249496 0.26825687 0.28451002 0.30122632
0.3183735 0.33591512 0.35381052 0.37201512 0.39048025 0.40915343 0.42797852 0.44689587
0.4658427 0.48475343 0.50355995 0.52219176 0.54057693 0.5586421 0.5763129 0.59351504
0.610174 0.62621623 0.6415693 0.65616256 0.6699277 0.6827993 0.6947152 0.7056172
0.7154514 0.7241687 0.7317252 0.73808247 0.74320805 0.74707556 0.749665 0.75096315
0.75096315 0.749665 0.74707556 0.74320805 0.73808247 0.7317252 0.7241687 0.7154514
0.7056172 0.6947152 0.6827993 0.6699277 0.65616256 0.6415693 0.62621623 0.610174
0.59351504 0.5763129 0.5586421 0.54057693 0.52219176 0.50355995 0.48475343 0.4658427
0.44689587 0.42797852 0.40915343 0.39048025 0.37201512 0.35381052 0.33591512 0.3183735
0.30122632 0.28451002 0.26825687 0.25249496 0.23724842 0.22253713 0.20837723 0.19478102
0.18175723 0.16931106 0.15744455 0.1461566 0.13544343 0.12529856 0.11571317 0.106676355
0.09817531 0.09019549 0.082721084 0.075734906 0.0692189 0.06315413 0.057521153 0.052300032
0.047470637 0.0430127 0.038906034 0.035130627 0.031666745 0.028495062 0.025596725 0.022953445
0.020547545 0.018362023 0.016380602 0.014587731 0.012968634 0.011509314 0.010196551 0.009017908
0.007961711 0.007017075 0.0061738277 0.005422523 0.0047544134 0.0041614166 0.003636084 0.0031715776
0.0027616294 0.0024005137 0.0020830103 0.0018043774 0.001560314 0.0013469289 0.0011607184 0.0009985204
0.0008575043 0.0007351293 0.0006291301 0.00053748314 0.00045839406 0.000390266 0.00033168972 0.0002814174
0.00023835208 0.00020152814 0.00017009873 0.00014332276 0.00012055285 0.000101225174 8.484938e-05 7.099979e-05
5.9308124e-05 4.945611e-05 4.116935e-05 3.42119e-05 2.8381059e-05 2.3503291e-05 1.943021e-05 1.6035223e-05
1.3210557e-05 1.0864656e-05 8.919882e-06 7.3105716e-06 5.9812483e-06 4.8851853e-06 3.983079e-06 3.2419437e-06
2.6341486e-06 2.1366047e-06 1.7300409e-06 1.3984188e-06 1.1284097e-06 9.089606e-07 7.309236e-07 5.8674266e-07
00000000: a680 1d35 b034 4435 4cff 7335 dd73 9735
00000010: 4eb1 bb35 c133 e835 9762 0f36 54c6 3036
00000020: 2b90 5936 63a6 8536 6ceb a336 88b2 c836
00000030: 554d f536 9aa6 1537 5847 3637 e9a2 5d37
00000040: 6183 8637 0ffe a237 ef28 c537 dc13 ee37
00000050: bf7e 0f38 41ad 2c38 186f 4f38 9dc1 7838
00000060: b9e5 9438 2af1 b138 da48 d438 52d1 fc38
00000070: e948 1639 885c 3239 4c51 5339 26ee 7939
00000080: 348b 9339 a4e6 ad39 9e9c cc39 9c54 f039
00000090: e2e5 0c3a 35ec 243a b1b5 403a 24ca 603a
000000a0: c9e0 823a 3f23 983a 6f8b b03a 7383 cc3a
000000b0: dc80 ec3a 1d83 083b f051 1d3b 74fc 343b
000000c0: 3eda 4f3b 5e4b 6e3b 7e5c 883b e9ca 9b3b
000000d0: 6baf b13b d24d ca3b 7eef e53b d671 023c
000000e0: d9bf 133c 6f0f 273c 9091 3c3c 657a 543c
000000f0: 6101 6f3c 9d30 863c f46b 963c 5353 a83c
00000100: dd08 bc3c 39b0 d13c 7a6e e93c fdb4 013d
00000110: 22e5 0f3d ef5b 1f3d 162e 303d 9270 423d
00000120: 8f38 563d 4d9b 6b3d f456 813d a3c2 8d3d
00000130: e71a 9b3d ac69 a93d 6ab8 b83d 2310 c93d
00000140: 2279 da3d 07fb ec3d 444e 003e afb1 0a3e
00000150: 13aa 153e 2539 213e e15f 2d3e 911e 3a3e
00000160: ad74 473e d760 553e c6e0 633e 40f1 723e
00000170: 0547 813e f758 893e 4cab 913e 563a 9a3e
00000180: da01 a33e 11fd ab3e a726 b53e c478 be3e
00000190: 07ed c73e 8f7c d13e 0020 db3e 89cf e43e
000001a0: ef82 ee3e 9a31 f83e 4ee9 003f 5cae 053f
000001b0: 4063 0a3f 2b03 0f3f 3e89 133f 9af0 173f
000001c0: 5d34 1c3f b54f 203f e33d 243f 45fa 273f
000001d0: 6280 2b3f efcb 2e3f dbd8 313f 54a3 343f
000001e0: d327 373f 1f63 393f 5852 3b3f f9f2 3c3f
000001f0: e242 3e3f 5840 3f3f 0cea 3f3f 1f3f 403f
00000200: 1f3f 403f 0cea 3f3f 5840 3f3f e242 3e3f
00000210: f9f2 3c3f 5852 3b3f 1f63 393f d327 373f
00000220: 54a3 343f dbd8 313f efcb 2e3f 6280 2b3f
00000230: 45fa 273f e33d 243f b54f 203f 5d34 1c3f
00000240: 9af0 173f 3e89 133f 2b03 0f3f 4063 0a3f
00000250: 5cae 053f 4ee9 003f 9a31 f83e ef82 ee3e
00000260: 89cf e43e 0020 db3e 8f7c d13e 07ed c73e
00000270: c478 be3e a726 b53e 11fd ab3e da01 a33e
00000280: 563a 9a3e 4cab 913e f758 893e 0547 813e
00000290: 40f1 723e c6e0 633e d760 553e ad74 473e
000002a0: 911e 3a3e e15f 2d3e 2539 213e 13aa 153e
000002b0: afb1 0a3e 444e 003e 07fb ec3d 2279 da3d
000002c0: 2310 c93d 6ab8 b83d ac69 a93d e71a 9b3d
000002d0: a3c2 8d3d f456 813d 4d9b 6b3d 8f38 563d
000002e0: 9270 423d 162e 303d ef5b 1f3d 22e5 0f3d
000002f0: fdb4 013d 7a6e e93c 39b0 d13c dd08 bc3c
00000300: 5353 a83c f46b 963c 9d30 863c 6101 6f3c
00000310: 657a 543c 9091 3c3c 6f0f 273c d9bf 133c
00000320: d671 023c 7eef e53b d24d ca3b 6baf b13b
00000330: e9ca 9b3b 7e5c 883b 5e4b 6e3b 3eda 4f3b
00000340: 74fc 343b f051 1d3b 1d83 083b dc80 ec3a
00000350: 7383 cc3a 6f8b b03a 3f23 983a c9e0 823a
00000360: 24ca 603a b1b5 403a 35ec 243a e2e5 0c3a
00000370: 9c54 f039 9e9c cc39 a4e6 ad39 348b 9339
00000380: 26ee 7939 4c51 5339 885c 3239 e948 1639
00000390: 52d1 fc38 da48 d438 2af1 b138 b9e5 9438
000003a0: 9dc1 7838 186f 4f38 41ad 2c38 bf7e 0f38
000003b0: dc13 ee37 ef28 c537 0ffe a237 6183 8637
000003c0: e9a2 5d37 5847 3637 9aa6 1537 554d f536
000003d0: 88b2 c836 6ceb a336 63a6 8536 2b90 5936
000003e0: 54c6 3036 9762 0f36 c133 e835 4eb1 bb35
000003f0: dd73 9735 4cff 7335 b034 4435 a680 1d35

hamiltonian.wells.1.hermite_basis f4 [3, 256]
0.0014500135 0.0015987589 0.0017614086 0.0019391134 0.002133104 0.0023447 0.0025753027 0.002826416
0.0030996238 0.0033966321 0.0037192367 0.004069352 0.0044490024 0.00486034 0.0053056185 0.0057872436
0.006307735 0.006869756 0.0074761016 0.008129713 0.008833666 0.009591205 0.010405695 0.011280688
0.012219838 0.013227017 0.01430619 0.01546153 0.016697314 0.01801804 0.019428257 0.020932762
0.022536427 0.024244323 0.026061572 0.027993517 0.03004555 0.032223236 0.034532182 0.036978167
0.03956692 0.042304397 0.045196474 0.048249174 0.05146847 0.054860365 0.058430824 0.06218584
0.066131316 0.07027305 0.07461674 0.079168074 0.08393245 0.088915095 0.09412121 0.09955555
0.1052227 0.11112697 0.11727233 0.1236624 0.13030043 0.13718928 0.14433128 0.15172836
0.159382 0.167293 0.1754617 0.1838878 0.19257039 0.20150799 0.21069829 0.2201384
0.2298247 0.23975277 0.24991749 0.26031289 0.2709323 0.28176817 0.29281217 0.30405512
0.3154872 0.32709742 0.33887425 0.3508052 0.3628771 0.3750759 0.38738683 0.39979428
0.412282 0.42483294 0.43742946 0.45005333 0.46268556 0.47530678 0.48789698 0.50043565
0.51290214 0.52527505 0.537533 0.54965407 0.5616166 0.5733983 0.5849772 0.59633124
0.6074384 0.6182768 0.62882483 0.63906133 0.64896524 0.65851605 0.6676938 0.67647916
0.6848532 0.6927981 0.7002964 0.7073318 0.7138887 0.7199525 0.7255099 0.73054814
0.73505586 0.73902303 0.74244046 0.7453004 0.7475963 0.74932283 0.75047606 0.7510534
0.7510534 0.75047606 0.74932283 0.7475963 0.7453004 0.74244046 0.73902303 0.73505586
0.73054814 0.7255099 0.7199525 0.7138887 0.7073318 0.7002964 0.6927981 0.6848532
0.67647916 0.6676938 0.65851605 0.64896524 0.63906133 0.62882483 0.6182768 0.6074384
0.59633124 0.5849772 0.5733983 0.5616166 0.54965407 0.537533 0.52527505 0.51290214
0.50043565 0.48789698 0.47530678 0.46268556 0.45005333 0.43742946 0.42483294 0.412282
0.39979428 0.38738683 0.3750759 0.3628771 0.3508052 0.33887425 0.32709742 0.3154872
0.30405512 0.29281217 0.28176817 0.2709323 0.26031289 0.24991749 0.23975277 0.2298247
0.2201384 0.21069829 0.20150799 0.19257039 0.1838878 0.1754617 0.167293 0.159382
0.15172836 0.14433128 0.13718928 0.13030043 0.1236624 0.11727233 0.11112697 0.1052227
0.09955555 0.09412121 0.088915095 0.08393245 0.079168074 0.07461674 0.07027305 0.066131316
0.06218584 0.058430824 0.054860365 0.05146847 0.048249174 0.045196474 0.042304397 0.03956692
0.036978167 0.034532182 0.032223236 0.03004555 0.027993517 0.026061572 0.024244323 0.022536427
0.020932762 0.019428257 0.01801804 0.016697314 0.01546153 0.01430619 0.013227017 0.012219838
0.011280688 0.010405695 0.009591205 0.008833666 0.008129713 0.0074761016 0.006869756 0.006307735
0.0057872436 0.0053056185 0.00486034 0.0044490024 0.004069352 0.0037192367 0.0033966321 0.0030996238
0.002826416 0.0025753027 0.0023447 0.002133104 0.0019391134 0.0017614086 0.0015987589 0.0014500135
00000000: 610e be3a 728d d13a 11df e63a d929 fe3a
00000010: 8ccb 0b3b 8aa9 193b 69c6 283b 643b 393b
00000020: 0f23 4b3b 089a 5e3b 70be 733b 3358 853b
00000030: f0c8 913b 7d43 9f3b c1da ad3b eba2 bd3b
00000040: 1eb1 ce3b b11b e13b 16fa f43b 7d32 053c
00000050: 15bb 103c 6e24 1d3c a67c 2a3c a3d2 383c
00000060: b735 483c 21b6 583c 8364 6a3c 5b52 7d3c
00000070: cec8 883c 929a 933c 0228 9f3c 2f7b ab3c
00000080: 509e b83c 089c c63c 147f d53c a952 e53c
00000090: 1622 f63c 83fc 033d 9e71 0d3d 6b76 173d
000000a0: ec10 223d 6047 2d3d f01f 393d eda0 453d
000000b0: 9ad0 523d 43b5 603d 2955 6f3d 94b6 7e3d
000000c0: db6f 873d 51eb 8f3d a9d0 983d df22 a23d
000000d0: c7e4 ab3d 1e19 b63d 9fc2 c03d c8e3 cb3d
000000e0: 007f d73d 8996 e33d 7a2c f03d b642 fd3d
000000f0: 7a6d 053e 597b 0c3e 94cb 133e ae5e 1b3e
00000100: 0935 233e db4e 2b3e 3bac 333e 154d 3c3e
00000110: 2c31 453e 1c58 4e3e 4bc1 573e f66b 613e
00000120: 2b57 6b3e c081 753e 5fea 7f3e bb47 853e
00000130: a3b7 8a3e eb43 903e 7aeb 953e 1dad 9b3e
00000140: 8a87 a13e 5079 a73e ed80 ad3e bd9c b33e
00000150: 07cb b93e f309 c03e 9157 c63e d6b1 cc3e
00000160: a016 d33e b483 d93e c1f6 df3e 646d e63e
00000170: 1fe5 ec3e 695b f33e a2cd f93e 8d1c 003f
00000180: 8e4d 033f 6d78 063f c39b 093f 21b6 0c3f
00000190: 1bc6 0f3f 3bca 123f 11c1 153f 2aa9 183f
000001a0: 1581 1b3f 6347 1e3f aafa 203f 8699 233f
000001b0: 9622 263f 8294 283f fbed 2a3f bd2d 2d3f
000001c0: 8a52 2f3f 375b 313f a046 333f b213 353f
000001d0: 69c1 363f cf4e 383f 04bb 393f 3405 3b3f
000001e0: 9f2c 3c3f 9d30 3d3f 9410 3e3f 02cc 3e3f
000001f0: 7962 3f3f 9fd3 3f3f 331f 403f 0945 403f
00000200: 0945 403f 331f 403f 9fd3 3f3f 7962 3f3f
00000210: 02cc 3e3f 9410 3e3f 9d30 3d3f 9f2c 3c3f
00000220: 3405 3b3f 04bb 393f cf4e 383f 69c1 363f
00000230: b213 353f a046 333f 375b 313f 8a52 2f3f
00000240: bd2d 2d3f fbed 2a3f 8294 283f 9622 263f
00000250: 8699 233f aafa 203f 6347 1e3f 1581 1b3f
00000260: 2aa9 183f 11c1 153f 3bca 123f 1bc6 0f3f
00000270: 21b6 0c3f c39b 093f 6d78 063f 8e4d 033f
00000280: 8d1c 003f a2cd f93e 695b f33e 1fe5 ec3e
00000290: 646d e63e c1f6 df3e b483 d93e a016 d33e
000002a0: d6b1 cc3e 9157 c63e f309 c03e 07cb b93e
000002b0: bd9c b33e ed80 ad3e 5079 a73e 8a87 a13e
000002c0: 1dad 9b3e 7aeb 953e eb43 903e a3b7 8a3e
000002d0: bb47 853e 5fea 7f3e c081 753e 2b57 6b3e
000002e0: f66b 613e 4bc1 573e 1c58 4e3e 2c31 453e
000002f0: 154d 3c3e 3bac 333e db4e 2b3e 0935 233e
00000300: ae5e 1b3e 94cb 133e 597b 0c3e 7a6d 053e
00000310: b642 fd3d 7a2c f03d 8996 e33d 007f d73d
00000320: c8e3 cb3d 9fc2 c03d 1e19 b63d c7e4 ab3d
00000330: df22 a23d a9d0 983d 51eb 8f3d db6f 873d
00000340: 94b6 7e3d 2955 6f3d 43b5 603d 9ad0 523d
00000350: eda0 453d f01f 393d 6047 2d3d ec10 223d
00000360: 6b76 173d 9e71 0d3d 83fc 033d 1622 f63c
00000370: a952 e53c 147f d53c 089c c63c 509e b83c
00000380: 2f7b ab3c 0228 9f3c 929a 933c cec8 883c
00000390: 5b52 7d3c 8364 6a3c 21b6 583c b735 483c
000003a0: a3d2 383c a67c 2a3c 6e24 1d3c 15bb 103c
000003b0: 7d32 053c 16fa f43b b11b e13b 1eb1 ce3b
000003c0: eba2 bd3b c1da ad3b 7d43 9f3b f0c8 913b
000003d0: 3358 853b 70be 733b 089a 5e3b 0f23 4b3b
000003e0: 643b 393b 69c6 283b 8aa9 193b 8ccb 0b3b
000003f0: d929 fe3a 11df e63a 728d d13a 610e be3a

hamiltonian.wells.2.hermite_basis f4 [5, 256]
0.07916804 0.08200079 0.084911294 0.08790088 0.090970464 0.09412121 0.097354114 0.1006702
0.104070395 0.1075557 0.11112693 0.114785 0.118530616 0.12236463 0.12628764 0.13030043
0.13440344 0.13859734 0.14288248 0.1472594 0.15172836 0.1562897 0.16094357 0.16569017
0.17052953 0.17546168 0.18048647 0.18560381 0.1908134 0.19611497 0.20150794 0.20699202
0.2125664 0.21823058 0.2239836 0.2298247 0.23575279 0.24176696 0.24786583 0.25404832
0.26031286 0.2666581 0.27308235 0.27958405 0.28616127 0.29281217 0.2995347 0.3063268
0.31318614 0.32011053 0.32709742 0.33414426 0.34124848 0.3484073 0.3556178 0.3628771
0.37018207 0.3775296 0.3849164 0.39233908 0.39979428 0.40727836 0.41478762 0.4223185
0.4298671 0.43742946 0.4450017 0.45257974 0.4601594 0.46773648 0.47530678 0.4828659
0.49040946 0.49793303 0.5054321 0.5129021 0.5203384 0.5277365 0.5350916 0.54239905
0.54965407 0.556852 0.56398803 0.57105744 0.57805544 0.5849772 0.591818 0.5985731
0.6052377 0.6118072 0.6182768 0.62464184 0.63089776 0.63703996 0.6430639 0.64896524
0.6547394 0.6603821 0.665889 0.67125607 0.67647916 0.68155414 0.68647707 0.69124424
0.6958519 0.7002964 0.70457417 0.7086819 0.71261626 0.71637416 0.7199525 0.72334856
0.7265594 0.72958255 0.73241544 0.73505586 0.7375017 0.73975074 0.7418014 0.74365175
0.7453004 0.746746 0.7479873 0.74902326 0.74985313 0.75047606 0.7508917 0.7510996
0.7510996 0.7508917 0.75047606 0.74985313 0.74902326 0.7479873 0.746746 0.7453004
0.74365175 0.7418014 0.73975074 0.7375017 0.73505586 0.73241544 0.72958255 0.7265594
0.72334856 0.7199525 0.71637416 0.71261626 0.7086819 0.70457417 0.7002964 0.6958519
0.69124424 0.68647707 0.68155414 0.67647916 0.67125607 0.665889 0.6603821 0.6547394
0.64896524 0.6430639 0.63703996 0.63089776 0.62464184 0.6182768 0.6118072 0.6052377
0.5985731 0.591818 0.5849772 0.57805544 0.57105744 0.56398803 0.556852 0.54965407
0.54239905 0.5350916 0.5277365 0.5203384 0.5129021 0.5054321 0.49793303 0.49040946
0.4828659 0.47530678 0.46773648 0.4601594 0.45257974 0.4450017 0.43742946 0.4298671
0.4223185 0.41478762 0.40727836 0.39979428 0.39233908 0.3849164 0.3775296 0.37018207
0.3628771 0.3556178 0.3484073 0.34124848 0.33414426 0.32709742 0.32011053 0.31318614
0.3063268 0.2995347 0.29281217 0.28616127 0.27958405 0.27308235 0.2666581 0.26031286
0.25404832 0.24786583 0.24176696 0.23575279 0.2298247 0.2239836 0.21823058 0.2125664
0.20699202 0.20150794 0.19611497 0.1908134 0.18560381 0.18048647 0.17546168 0.17052953
0.16569017 0.16094357 0.1562897 0.15172836 0.1472594 0.14288248 0.13859734 0.13440344
0.13030043 0.12628764 0.12236463 0.118530616 0.114785 0.11112693 0.1075557 0.104070395
0.1006702 0.097354114 0.09412121 0.090970464 0.08790088 0.084911294 0.08200079 0.07916804
00000000: da22 a23d 08f0 a73d f9e5 ad3d 6005 b43d
00000010: b94e ba3d 9fc2 c03d 9861 c73d 2e2c ce3d
00000020: dc22 d53d 2a46 dc3d 8496 e33d 6614 eb3d
00000030: 2ec0 f23d 4f9a fa3d 8c51 013e 7a6d 053e
00000040: 0ea1 093e 76ec 0d3e c94f 123e 2bcb 163e
00000050: ae5e 1b3e 680a 203e 64ce 243e afaa 293e
00000060: 4b9f 2e3e 3aac 333e 72d1 383e ed0e 3e3e
00000070: 9764 433e 5dd2 483e 1958 4e3e b7f5 533e
00000080: 02ab 593e d677 5f3e f55b 653e 2b57 6b3e
00000090: 2e69 713e c291 773e 8ad0 7d3e 9f12 823e
000000a0: ba47 853e 6987 883e 73d1 8b3e a425 8f3e
000000b0: bb83 923e 7aeb 953e 9d5c 993e ded6 9c3e
000000c0: ef59 a03e 87e5 a33e 5079 a73e f514 ab3e
000000d0: 1fb8 ae3e 7162 b23e 8913 b63e 07cb b93e
000000e0: 8188 bd3e 8f4b c13e c313 c53e abe0 c83e
000000f0: d6b1 cc3e ca86 d03e 0b5f d43e 213a d83e
00000100: 8a17 dc3e c1f6 df3e 43d7 e33e 88b8 e73e
00000110: 039a eb3e 287b ef3e 695b f33e 333a f73e
00000120: f316 fb3e 14f1 fe3e 0064 013f 8d4d 033f
00000130: e634 053f bd19 073f c3fb 083f aada 0a3f
00000140: 21b6 0c3f da8d 0e3f 8561 103f d230 123f
00000150: 71fb 133f 11c1 153f 6281 173f 163c 193f
00000160: dcf0 1a3f 669f 1c3f 6347 1e3f 87e8 1f3f
00000170: 8482 213f 0d15 233f d69f 243f 9622 263f
00000180: 009d 273f cd0e 293f b477 2a3f 70d7 2b3f
00000190: bd2d 2d3f 557a 2e3f f6bc 2f3f 62f5 303f
000001a0: 5a23 323f a046 333f f95e 343f 2d6c 353f
000001b0: 056e 363f 4c64 373f cf4e 383f 5f2d 393f
000001c0: ccff 393f ecc5 3a3f 947f 3b3f 9f2c 3c3f
000001d0: e9cc 3c3f 4e60 3d3f b2e6 3d3f f65f 3e3f
000001e0: 02cc 3e3f bf2a 3f3f 187c 3f3f fdbf 3f3f
000001f0: 60f6 3f3f 331f 403f 703a 403f 1048 403f
00000200: 1048 403f 703a 403f 331f 403f 60f6 3f3f
00000210: fdbf 3f3f 187c 3f3f bf2a 3f3f 02cc 3e3f
00000220: f65f 3e3f b2e6 3d3f 4e60 3d3f e9cc 3c3f
00000230: 9f2c 3c3f 947f 3b3f ecc5 3a3f ccff 393f
00000240: 5f2d 393f cf4e 383f 4c64 373f 056e 363f
00000250: 2d6c 353f f95e 343f a046 333f 5a23 323f
00000260: 62f5 303f f6bc 2f3f 557a 2e3f bd2d 2d3f
00000270: 70d7 2b3f b477 2a3f cd0e 293f 009d 273f
00000280: 9622 263f d69f 243f 0d15 233f 8482 213f
00000290: 87e8 1f3f 6347 1e3f 669f 1c3f dcf0 1a3f
000002a0: 163c 193f 6281 173f 11c1 153f 71fb 133f
000002b0: d230 123f 8561 103f da8d 0e3f 21b6 0c3f
000002c0: aada 0a3f c3fb 083f bd19 073f e634 053f
000002d0: 8d4d 033f 0064 013f 14f1 fe3e f316 fb3e
000002e0: 333a f73e 695b f33e 287b ef3e 039a eb3e
000002f0: 88b8 e73e 43d7 e33e c1f6 df3e 8a17 dc3e
00000300: 213a d83e 0b5f d43e ca86 d03e d6b1 cc3e
00000310: abe0 c83e c313 c53e 8f4b c13e 8188 bd3e
00000320: 07cb b93e 8913 b63e 7162 b23e 1fb8 ae3e
00000330: f514 ab3e 5079 a73e 87e5 a33e ef59 a03e
00000340: ded6 9c3e 9d5c 993e 7aeb 953e bb83 923e
00000350: a425 8f3e 73d1 8b3e 6987 883e ba47 853e
00000360: 9f12 823e 8ad0 7d3e c291 773e 2e69 713e
00000370: 2b57 6b3e f55b 653e d677 5f3e 02ab 593e
00000380: b7f5 533e 1958 4e3e 5dd2 483e 9764 433e
00000390: ed0e 3e3e 72d1 383e 3aac 333e 4b9f 2e3e
000003a0: afaa 293e 64ce 243e 680a 203e ae5e 1b3e
000003b0: 2bcb 163e c94f 123e 76ec 0d3e 0ea1 093e
000003c0: 7a6d 053e 8c51 013e 4f9a fa3d 2ec0 f23d
000003d0: 6614 eb3d 8496 e33d 2a46 dc3d dc22 d53d
000003e0: 2e2c ce3d 9861 c73d 9fc2 c03d b94e ba3d
000003f0: 6005 b43d f9e5 ad3d 08f0 a73d da22 a23d

hamiltonian.wells.3.hermite_basis f4 [8, 256]
0.31189504 0.31620777 0.3205454 0.32490745 0.32929328 0.33370218 0.33813354 0.34258673
0.34706104 0.35155573 0.35607016 0.36060354 0.3651552 0.36972427 0.37431008 0.37891176
0.38352856 0.3881596 0.39280415 0.39746124 0.4021301 0.40680978 0.41149944 0.41619816
0.420905 0.42561907 0.43033937 0.43506497 0.4397949 0.44452822 0.44926387 0.4540009
0.45873824 0.46347496 0.46820983 0.47294208 0.4776704 0.4823939 0.48711136 0.4918218
0.4965241 0.5012172 0.50589985 0.5105711 0.51522976 0.51987475 0.52450484 0.529119
0.533716 0.53829473 0.5428541 0.5473928 0.5519098 0.5564039 0.560874 0.56531876
0.56973726 0.57412815 0.5784903 0.5828226 0.5871239 0.59139293 0.5956286 0.5998298
0.60399526 0.60812384 0.6122145 0.6162661 0.6202773 0.62424713 0.62817454 0.63205826
0.63589716 0.6396903 0.64343643 0.6471345 0.6507835 0.6543823 0.6579298 0.6614251
0.664867 0.66825455 0.6715868 0.6748627 0.67808115 0.68124133 0.68434227 0.68738294
0.69036245 0.69328 0.6961345 0.69892526 0.7016513 0.7043118 0.7069059 0.7094329
0.7118919 0.7142823 0.7166031 0.7188538 0.7210335 0.7231417 0.72517765 0.7271406
0.72903013 0.7308455 0.73258615 0.7342516 0.7358412 0.7373546 0.7387911 0.74015045
0.7414321 0.74263567 0.7437607 0.74480695 0.74577403 0.74666166 0.7474694 0.7481972
0.74884474 0.74941176 0.74989814 0.7503037 0.75062823 0.75087184 0.7510342 0.7511154
0.7511154 0.7510342 0.75087184 0.75062823 0.7503037 0.74989814 0.74941176 0.74884474
0.7481972 0.7474694 0.74666166 0.74577403 0.74480695 0.7437607 0.74263567 0.7414321
0.74015045 0.7387911 0.7373546 0.7358412 0.7342516 0.73258615 0.7308455 0.72903013
0.7271406 0.72517765 0.7231417 0.7210335 0.7188538 0.7166031 0.7142823 0.7118919
0.7094329 0.7069059 0.7043118 0.7016513 0.69892526 0.6961345 0.69328 0.69036245
0.68738294 0.68434227 0.68124133 0.67808115 0.6748627 0.6715868 0.66825455 0.664867
0.6614251 0.6579298 0.6543823 0.6507835 0.6471345 0.64343643 0.6396903 0.63589716
0.63205826 0.62817454 0.62424713 0.6202773 0.6162661 0.6122145 0.60812384 0.60399526
0.5998298 0.5956286 0.59139293 0.5871239 0.5828226 0.5784903 0.57412815 0.56973726
0.56531876 0.560874 0.5564039 0.5519098 0.5473928 0.5428541 0.53829473 0.533716
0.529119 0.52450484 0.51987475 0.51522976 0.5105711 0.50589985 0.5012172 0.4965241
0.4918218 0.48711136 0.4823939 0.4776704 0.47294208 0.46820983 0.46347496 0.45873824
0.4540009 0.44926387 0.44452822 0.4397949 0.43506497 0.43033937 0.42561907 0.420905
0.41619816 0.41149944 0.40680978 0.4021301 0.39746124 0.39280415 0.3881596 0.38352856
0.37891176 0.37431008 0.36972427 0.3651552 0.36060354 0.35607016 0.35155573 0.34706104
0.34258673 0.33813354 0.33370218 0.32929328 0.32490745 0.3205454 0.31620777 0.31189504
00000000: b5b0 9f3e fce5 a13e 871e a43e 455a a63e
00000010: 2199 a83e 03db aa3e d71f ad3e 8767 af3e
00000020: fcb1 b13e 1dff b33e d44e b63e 07a1 b83e
00000030: 9ff5 ba3e 804c bd3e 92a5 bf3e b900 c23e
00000040: db5d c43e dbbc c63e a01d c93e 0a80 cb3e
00000050: ffe3 cd3e 5f49 d03e 0eb0 d23e ed17 d53e
00000060: dc80 d73e beea d93e 7155 dc3e d6c0 de3e
00000070: cc2c e13e 3499 e33e ea05 e63e ce72 e83e
00000080: bddf ea3e 974c ed3e 33b9 ef3e 7725 f23e
00000090: 3791 f43e 55fc f63e a966 f93e 11d0 fb3e
000000a0: 6838 fe3e c54f 003f a782 013f cab4 023f
000000b0: 19e6 033f 8316 053f f345 063f 5874 073f
000000c0: 9da1 083f afcd 093f 7cf8 0a3f ef21 0c3f
000000d0: f649 0d3f 7c70 0e3f 7095 0f3f bbb8 103f
000000e0: 4dda 113f 10fa 123f f117 143f dd33 153f
000000f0: c04d 163f 8765 173f 1e7b 183f 728e 193f
00000100: 6f9f 1a3f 01ae 1b3f 17ba 1c3f 9dc3 1d3f
00000110: 7eca 1e3f a9ce 1f3f 0cd0 203f 92ce 213f
00000120: 28ca 223f bec2 233f 40b8 243f 9baa 253f
00000130: bf99 263f 9985 273f 166e 283f 2853 293f
00000140: b934 2a3f bb12 2b3f 1ded 2b3f cdc3 2c3f
00000150: ba96 2d3f d565 2e3f 0e31 2f3f 54f8 2f3f
00000160: 98bb 303f cc7a 313f df35 323f c4ec 323f
00000170: 6b9f 333f c74d 343f c9f7 343f 659d 353f
00000180: 8c3e 363f 34db 363f 4d73 373f cd06 383f
00000190: a795 383f d01f 393f 3ea5 393f e325 3a3f
000001a0: b8a1 3a3f b118 3b3f c48a 3b3f eaf7 3b3f
000001b0: 1760 3c3f 45c3 3c3f 6a21 3d3f 807a 3d3f
000001c0: 7ece 3d3f 5f1d 3e3f 1a67 3e3f abab 3e3f
000001d0: 0ceb 3e3f 3825 3f3f 285a 3f3f da89 3f3f
000001e0: 4ab4 3f3f 73d9 3f3f 53f9 3f3f e713 403f
000001f0: 2c29 403f 2339 403f c743 403f 1949 403f
00000200: 1949 403f c743 403f 2339 403f 2c29 403f
00000210: e713 403f 53f9 3f3f 73d9 3f3f 4ab4 3f3f
00000220: da89 3f3f 285a 3f3f 3825 3f3f 0ceb 3e3f
00000230: abab 3e3f 1a67 3e3f 5f1d 3e3f 7ece 3d3f
00000240: 807a 3d3f 6a21 3d3f 45c3 3c3f 1760 3c3f
00000250: eaf7 3b3f c48a 3b3f b118 3b3f b8a1 3a3f
00000260: e325 3a3f 3ea5 393f d01f 393f a795 383f
00000270: cd06 383f 4d73 373f 34db 363f 8c3e 363f
00000280: 659d 353f c9f7 343f c74d 343f 6b9f 333f
00000290: c4ec 323f df35 323f cc7a 313f 98bb 303f
000002a0: 54f8 2f3f 0e31 2f3f d565 2e3f ba96 2d3f
000002b0: cdc3 2c3f 1ded 2b3f bb12 2b3f b934 2a3f
000002c0: 2853 293f 166e 283f 9985 273f bf99 263f
000002d0: 9baa 253f 40b8 243f bec2 233f 28ca 223f
000002e0: 92ce 213f 0cd0 203f a9ce 1f3f 7eca 1e3f
000002f0: 9dc3 1d3f 17ba 1c3f 01ae 1b3f 6f9f 1a3f
00000300: 728e 193f 1e7b 183f 8765 173f c04d 163f
00000310: dd33 153f f117 143f 10fa 123f 4dda 113f
00000320: bbb8 103f 7095 0f3f 7c70 0e3f f649 0d3f
00000330: ef21 0c3f 7cf8 0a3f afcd 093f 9da1 083f
00000340: 5874 073f f345 063f 8316 053f 19e6 033f
00000350: cab4 023f a782 013f c54f 003f 6838 fe3e
00000360: 11d0 fb3e a966 f93e 55fc f63e 3791 f43e
00000370: 7725 f23e 33b9 ef3e 974c ed3e bddf ea3e
00000380: ce72 e83e ea05 e63e 3499 e33e cc2c e13e
00000390: d6c0 de3e 7155 dc3e beea d93e dc80 d73e
000003a0: ed17 d53e 0eb0 d23e 5f49 d03e ffe3 cd3e
000003b0: 0a80 cb3e a01d c93e dbbc c63e db5d c43e
000003c0: b900 c23e 92a5 bf3e 804c bd3e 9ff5 ba3e
000003d0: 07a1 b83e d44e b63e 1dff b33e fcb1 b13e
000003e0: 8767 af3e d71f ad3e 03db aa3e 2199 a83e
000003f0: 455a a63e 871e a43e fce5 a13e b5b0 9f3e

hamiltonian.wells.4.hermite_basis f4 [8, 256]
0.5384704 0.5412781 0.54407805 0.5468702 0.54965407 0.55242956 0.5551962 0.557954
0.56070244 0.5634414 0.5661706 0.5688896 0.57159835 0.5742965 0.57698363 0.5796597
0.5823243 0.5849772 0.5876181 0.5902468 0.59286296 0.5954663 0.5980566 0.60063356
0.603197 0.6057465 0.6082819 0.6108029 0.61330914 0.61580056 0.6182767 0.62073743
0.6231825 0.6256115 0.6280242 0.6304205 0.6327999 0.6351625 0.63750756 0.6398352
0.642145 0.6444368 0.6467103 0.64896524 0.6512013 0.65341836 0.6556161 0.65779436
0.65995276 0.66209114 0.6642093 0.6663069 0.6683838 0.67043966 0.6724743 0.6744876
0.6764791 0.6784488 0.6803963 0.6823215 0.68422407 0.6861039 0.6879607 0.6897943
0.6916044 0.6933909 0.6951536 0.69689214 0.6986065 0.7002964 0.7019616 0.70360196
0.7052173 0.7068074 0.708372 0.7099111 0.71142435 0.71291167 0.7143728 0.7158076
0.71721596 0.7185977 0.7199525 0.72128046 0.7225812 0.72385466 0.72510064 0.7263191
0.72750974 0.7286725 0.7298072 0.7309138 0.7319921 0.733042 0.73406327 0.73505586
0.73601973 0.7369546 0.73786056 0.7387373 0.7395848 0.74040294 0.7411917 0.7419508
0.7426804 0.7433802 0.74405015 0.7446903 0.7453004 0.74588054 0.74643046 0.74695027
0.74743986 0.7478991 0.748328 0.7487264 0.7490945 0.74943197 0.7497389 0.75001526
0.750261 0.75047606 0.7506605 0.7508142 0.7509372 0.75102943 0.75109094 0.7511217
0.7511217 0.75109094 0.75102943 0.7509372 0.7508142 0.7506605 0.75047606 0.750261
0.75001526 0.7497389 0.74943197 0.7490945 0.7487264 0.748328 0.7478991 0.74743986
0.74695027 0.74643046 0.74588054 0.7453004 0.7446903 0.74405015 0.7433802 0.7426804
0.7419508 0.7411917 0.74040294 0.7395848 0.7387373 0.73786056 0.7369546 0.73601973
0.73505586 0.73406327 0.733042 0.7319921 0.7309138 0.7298072 0.7286725 0.72750974
0.7263191 0.72510064 0.72385466 0.7225812 0.72128046 0.7199525 0.7185977 0.71721596
0.7158076 0.7143728 0.71291167 0.71142435 0.7099111 0.708372 0.7068074 0.7052173
0.70360196 0.7019616 0.7002964 0.6986065 0.69689214 0.6951536 0.6933909 0.6916044
0.6897943 0.6879607 0.6861039 0.68422407 0.6823215 0.6803963 0.6784488 0.6764791
0.6744876 0.6724743 0.67043966 0.6683838 0.6663069 0.6642093 0.66209114 0.65995276
0.65779436 0.6556161 0.65341836 0.6512013 0.64896524 0.6467103 0.6444368 0.642145
0.6398352 0.63750756 0.6351625 0.6327999 0.6304205 0.6280242 0.6256115 0.6231825
0.62073743 0.6182767 0.61580056 0.61330914 0.6108029 0.6082819 0.6057465 0.603197
0.60063356 0.5980566 0.5954663 0.59286296 0.5902468 0.5876181 0.5849772 0.5823243
0.5796597 0.57698363 0.5742965 0.57159835 0.5688896 0.5661706 0.5634414 0.56070244
0.557954 0.5551962 0.55242956 0.54965407 0.5468702 0.54407805 0.5412781 0.5384704
00000000: 32d9 093f 3491 0a3f b348 0b3f afff 0b3f
00000010: 21b6 0c3f 066c 0d3f 5721 0e3f 13d6 0e3f
00000020: 328a 0f3f b23d 103f 8ef0 103f c0a2 113f
00000030: 4554 123f 1805 133f 33b5 133f 9464 143f
00000040: 3513 153f 11c1 153f 246e 163f 6a1a 173f
00000050: dec5 173f 7b70 183f 3d1a 193f 1fc3 193f
00000060: 1e6b 1a3f 3412 1b3f 5db8 1b3f 945d 1c3f
00000070: d401 1d3f 1ba5 1d3f 6247 1e3f a6e8 1e3f
00000080: e388 1f3f 1328 203f 32c6 203f 3d63 213f
00000090: 2dff 213f 029a 223f b233 233f 3dcc 233f
000000a0: 9d63 243f cff9 243f ce8e 253f 9622 263f
000000b0: 21b5 263f 6d46 273f 75d6 273f 3665 283f
000000c0: aaf2 283f ce7e 293f 9f09 2a3f 1793 2a3f
000000d0: 331b 2b3f efa1 2b3f 4727 2c3f 38ab 2c3f
000000e0: bc2d 2d3f d2ae 2d3f 742e 2e3f 9fac 2e3f
000000f0: 4f29 2f3f 81a4 2f3f 311e 303f 5c96 303f
00000100: fc0c 313f 1182 313f 96f5 313f 8667 323f
00000110: e0d7 323f a046 333f c1b3 333f 421f 343f
00000120: 1f89 343f 54f1 343f de57 353f bcbc 353f
00000130: e81f 363f 6181 363f 23e1 363f 2b3f 373f
00000140: 779b 373f 05f6 373f cf4e 383f d6a5 383f
00000150: 15fb 383f 8a4e 393f 32a0 393f 0cf0 393f
00000160: 143e 3a3f 488a 3a3f a5d4 3a3f 2b1d 3b3f
00000170: d663 3b3f a4a8 3b3f 92eb 3b3f 9f2c 3c3f
00000180: ca6b 3c3f 0fa9 3c3f 6ee4 3c3f e31d 3d3f
00000190: 6e55 3d3f 0c8b 3d3f bdbe 3d3f 7df0 3d3f
000001a0: 4d20 3e3f 2a4e 3e3f 127a 3e3f 06a4 3e3f
000001b0: 02cc 3e3f 07f2 3e3f 1116 3f3f 2238 3f3f
000001c0: 3858 3f3f 5176 3f3f 6c92 3f3f 89ac 3f3f
000001d0: a8c4 3f3f c6da 3f3f e3ee 3f3f 0001 403f
000001e0: 1b11 403f 331f 403f 492b 403f 5c35 403f
000001f0: 6c3d 403f 7743 403f 7f47 403f 8349 403f
00000200: 8349 403f 7f47 403f 7743 403f 6c3d 403f
00000210: 5c35 403f 492b 403f 331f 403f 1b11 403f
00000220: 0001 403f e3ee 3f3f c6da 3f3f a8c4 3f3f
00000230: 89ac 3f3f 6c92 3f3f 5176 3f3f 3858 3f3f
00000240: 2238 3f3f 1116 3f3f 07f2 3e3f 02cc 3e3f
00000250: 06a4 3e3f 127a 3e3f 2a4e 3e3f 4d20 3e3f
00000260: 7df0 3d3f bdbe 3d3f 0c8b 3d3f 6e55 3d3f
00000270: e31d 3d3f 6ee4 3c3f 0fa9 3c3f ca6b 3c3f
00000280: 9f2c 3c3f 92eb 3b3f a4a8 3b3f d663 3b3f
00000290: 2b1d 3b3f a5d4 3a3f 488a 3a3f 143e 3a3f
000002a0: 0cf0 393f 32a0 393f 8a4e 393f 15fb 383f
000002b0: d6a5 383f cf4e 383f 05f6 373f 779b 373f
000002c0: 2b3f 373f 23e1 363f 6181 363f e81f 363f
000002d0: bcbc 353f de57 353f 54f1 343f 1f89 343f
000002e0: 421f 343f c1b3 333f a046 333f e0d7 323f
000002f0: 8667 323f 96f5 313f 1182 313f fc0c 313f
00000300: 5c96 303f 311e 303f 81a4 2f3f 4f29 2f3f
00000310: 9fac 2e3f 742e 2e3f d2ae 2d3f bc2d 2d3f
00000320: 38ab 2c3f 4727 2c3f efa1 2b3f 331b 2b3f
00000330: 1793 2a3f 9f09 2a3f ce7e 293f aaf2 283f
00000340: 3665 283f 75d6 273f 6d46 273f 21b5 263f
00000350: 9622 263f ce8e 253f cff9 243f 9d63 243f
00000360: 3dcc 233f b233 233f 029a 223f 2dff 213f
00000370: 3d63 213f 32c6 203f 1328 203f e388 1f3f
00000380: a6e8 1e3f 6247 1e3f 1ba5 1d3f d401 1d3f
00000390: 945d 1c3f 5db8 1b3f 3412 1b3f 1e6b 1a3f
000003a0: 1fc3 193f 3d1a 193f 7b70 183f dec5 173f
000003b0: 6a1a 173f 246e 163f 11c1 153f 3513 153f
000003c0: 9464 143f 33b5 133f 1805 133f 4554 123f
000003d0: c0a2 113f 8ef0 103f b23d 103f 328a 0f3f
000003e0: 13d6 0e3f 5721 0e3f 066c 0d3f 21b6 0c3f
000003f0: afff 0b3f b348 0b3f 3491 0a3f 32d9 093f

hamiltonian.wells.5.hermite_basis f4 [8, 256]
0.66117716 0.6624962 0.6638074 0.66511077 0.6664063 0.6676938 0.6689733 0.67024475
0.6715081 0.6727632 0.67401016 0.6752488 0.6764791 0.67770106 0.6789145 0.68011945
0.68131584 0.68250364 0.6836828 0.6848532 0.6860149 0.6871677 0.68831176 0.6894468
0.6905729 0.69169 0.692798 0.69389695 0.6949867 0.6960673 0.69713855 0.6982005
0.69925314 0.7002964 0.7013301 0.70235443 0.70336914 0.7043743 0.7053698 0.70635563
0.7073318 0.7082981 0.7092546 0.7102013 0.7111381 0.7120649 0.7129818 0.7138887
0.71478546 0.71567214 0.7165486 0.717415 0.71827114 0.719117 0.7199525 0.72077775
0.7215926 0.722397 0.723191 0.7239745 0.7247475 0.7255099 0.7262617 0.72700286
0.7277334 0.72845316 0.7291623 0.7298606 0.7305481 0.7312248 0.7318906 0.7325456
0.73318964 0.7338227 0.7344448 0.73505586 0.73565596 0.736245 0.73682284 0.7373896
0.7379453 0.73848975 0.73902303 0.7395451 0.7400559 0.74055547 0.7410437 0.74152064
0.7419862 0.74244046 0.7428834 0.7433148 0.74373484 0.7441434 0.7445406 0.7449262
0.7453004 0.74566305 0.7460142 0.74635375 0.7466818 0.7469982 0.74730307 0.7475963
0.7478779 0.7481479 0.74840623 0.7486529 0.7488879 0.74911124 0.74932283 0.7495228
0.749711 0.74988747 0.7500523 0.7502053 0.75034654 0.75047606 0.7505939 0.7506999
0.7507941 0.7508766 0.7509473 0.75100625 0.7510534 0.75108874 0.75111234 0.7511241
0.7511241 0.75111234 0.75108874 0.7510534 0.75100625 0.7509473 0.7508766 0.7507941
0.7506999 0.7505939 0.75047606 0.75034654 0.7502053 0.7500523 0.74988747 0.749711
0.7495228 0.74932283 0.74911124 0.7488879 0.7486529 0.74840623 0.7481479 0.7478779
0.7475963 0.74730307 0.7469982 0.7466818 0.74635375 0.7460142 0.74566305 0.7453004
0.7449262 0.7445406 0.7441434 0.74373484 0.7433148 0.7428834 0.74244046 0.7419862
0.74152064 0.7410437 0.74055547 0.7400559 0.7395451 0.73902303 0.73848975 0.7379453
0.7373896 0.73682284 0.736245 0.73565596 0.73505586 0.7344448 0.7338227 0.73318964
0.7325456 0.7318906 0.7312248 0.7305481 0.7298606 0.7291623 0.72845316 0.7277334
0.72700286 0.7262617 0.7255099 0.7247475 0.7239745 0.723191 0.722397 0.7215926
0.72077775 0.7199525 0.719117 0.71827114 0.717415 0.7165486 0.71567214 0.71478546
0.7138887 0.7129818 0.7120649 0.7111381 0.7102013 0.7092546 0.7082981 0.7073318
0.70635563 0.7053698 0.7043743 0.70336914 0.70235443 0.7013301 0.7002964 0.69925314
0.6982005 0.69713855 0.6960673 0.6949867 0.69389695 0.692798 0.69169 0.6905729
0.6894468 0.68831176 0.6871677 0.6860149 0.6848532 0.6836828 0.68250364 0.68131584
0.68011945 0.6789145 0.67770106 0.6764791 0.6752488 0.67401016 0.6727632 0.6715081
0.67024475 0.6689733 0.6676938 0.6664063 0.66511077 0.6638074 0.6624962 0.66117716
00000000: e842 293f 5a99 293f 48ef 293f b344 2a3f
00000010: 9a99 2a3f fbed 2a3f d641 2b3f 2995 2b3f
00000020: f4e7 2b3f 363a 2c3f ee8b 2c3f 1bdd 2c3f
00000030: bc2d 2d3f d17d 2d3f 57cd 2d3f 4f1c 2e3f
00000040: b76a 2e3f 8fb8 2e3f d605 2f3f 8a52 2f3f
00000050: ac9e 2f3f 39ea 2f3f 3335 303f 967f 303f
00000060: 63c9 303f 9912 313f 365b 313f 3ba3 313f
00000070: a6ea 313f 7731 323f ac77 323f 45bd 323f
00000080: 4102 333f a046 333f 5f8a 333f 80cd 333f
00000090: 0010 343f e051 343f 1d93 343f b9d3 343f
000000a0: b213 353f 0653 353f b691 353f c1cf 353f
000000b0: 260d 363f e349 363f fa85 363f 69c1 363f
000000c0: 2efc 363f 4a36 373f bb6f 373f 82a8 373f
000000d0: 9ee0 373f 0d18 383f cf4e 383f e484 383f
000000e0: 4bba 383f 03ef 383f 0c23 393f 6556 393f
000000f0: 0d89 393f 04bb 393f 49ec 393f dc1c 3a3f
00000100: bc4c 3a3f e87b 3a3f 61aa 3a3f 25d8 3a3f
00000110: 3305 3b3f 8c31 3b3f 2f5d 3b3f 1c88 3b3f
00000120: 51b2 3b3f cedb 3b3f 9304 3c3f 9f2c 3c3f
00000130: f353 3c3f 8d7a 3c3f 6ca0 3c3f 91c5 3c3f
00000140: fce9 3c3f aa0d 3d3f 9d30 3d3f d452 3d3f
00000150: 4e74 3d3f 0b95 3d3f 0ab5 3d3f 4cd4 3d3f
00000160: cff2 3d3f 9410 3e3f 9b2d 3e3f e149 3e3f
00000170: 6865 3e3f 2f80 3e3f 369a 3e3f 7cb3 3e3f
00000180: 02cc 3e3f c6e3 3e3f c9fa 3e3f 0a11 3f3f
00000190: 8a26 3f3f 463b 3f3f 414f 3f3f 7962 3f3f
000001a0: ed74 3f3f 9f86 3f3f 8d97 3f3f b7a7 3f3f
000001b0: 1eb7 3f3f c1c5 3f3f 9fd3 3f3f bae0 3f3f
000001c0: 0fed 3f3f a0f8 3f3f 6d03 403f 740d 403f
000001d0: b616 403f 331f 403f ec26 403f de2d 403f
000001e0: 0b34 403f 7339 403f 153e 403f f241 403f
000001f0: 0945 403f 5a47 403f e648 403f ab49 403f
00000200: ab49 403f e648 403f 5a47 403f 0945 403f
00000210: f241 403f 153e 403f 7339 403f 0b34 403f
00000220: de2d 403f ec26 403f 331f 403f b616 403f
00000230: 740d 403f 6d03 403f a0f8 3f3f 0fed 3f3f
00000240: bae0 3f3f 9fd3 3f3f c1c5 3f3f 1eb7 3f3f
00000250: b7a7 3f3f 8d97 3f3f 9f86 3f3f ed74 3f3f
00000260: 7962 3f3f 414f 3f3f 463b 3f3f 8a26 3f3f
00000270: 0a11 3f3f c9fa 3e3f c6e3 3e3f 02cc 3e3f
00000280: 7cb3 3e3f 369a 3e3f 2f80 3e3f 6865 3e3f
00000290: e149 3e3f 9b2d 3e3f 9410 3e3f cff2 3d3f
000002a0: 4cd4 3d3f 0ab5 3d3f 0b95 3d3f 4e74 3d3f
000002b0: d452 3d3f 9d30 3d3f aa0d 3d3f fce9 3c3f
000002c0: 91c5 3c3f 6ca0 3c3f 8d7a 3c3f f353 3c3f
000002d0: 9f2c 3c3f 9304 3c3f cedb 3b3f 51b2 3b3f
000002e0: 1c88 3b3f 2f5d 3b3f 8c31 3b3f 3305 3b3f
000002f0: 25d8 3a3f 61aa 3a3f e87b 3a3f bc4c 3a3f
00000300: dc1c 3a3f 49ec 393f 04bb 393f 0d89 393f
00000310: 6556 393f 0c23 393f 03ef 383f 4bba 383f
00000320: e484 383f cf4e 383f 0d18 383f 9ee0 373f
00000330: 82a8 373f bb6f 373f 4a36 373f 2efc 363f
00000340: 69c1 363f fa85 363f e349 363f 260d 363f
00000350: c1cf 353f b691 353f 0653 353f b213 353f
00000360: b9d3 343f 1d93 343f e051 343f 0010 343f
00000370: 80cd 333f 5f8a 333f a046 333f 4102 333f
00000380: 45bd 323f ac77 323f 7731 323f a6ea 313f
00000390: 3ba3 313f 365b 313f 9912 313f 63c9 303f
000003a0: 967f 303f 3335 303f 39ea 2f3f ac9e 2f3f
000003b0: 8a52 2f3f d605 2f3f 8fb8 2e3f b76a 2e3f
000003c0: 4f1c 2e3f 57cd 2d3f d17d 2d3f bc2d 2d3f
000003d0: 1bdd 2c3f ee8b 2c3f 363a 2c3f f4e7 2b3f
000003e0: 2995 2b3f d641 2b3f fbed 2a3f 9a99 2a3f
000003f0: b344 2a3f 48ef 293f 5a99 293f e842 293f

hamiltonian.amplitude_projections.0.weight f4 [2, 64]
0.101398274 -0.008398116 0.09451428 -0.12168753 0.06364147 0.014259458 -0.06320204 -0.007793486
-0.022419453 0.033463806 0.033325225 0.086086184 0.05472584 -0.10017392 -0.055790022 -0.032296017
0.03452283 -0.05792728 0.016437367 0.02155459 -0.04994443 0.026253715 0.044350326 -0.099865094
0.082054764 -0.008900911 0.11146283 -0.04708995 -0.0366413 -0.0030050427 -0.06494865 -0.07573041
0.08792941 0.07253699 0.016921908 -0.045143053 -0.1071382 -0.10891336 0.0040668994 -0.06537311
0.0078101456 0.09549025 -0.06641233 0.018701553 0.017138377 0.061164856 -0.08917919 -0.052210152
-0.041655883 -0.102536514 -0.056955025 0.011084065 0.06404993 -0.062356934 -0.0135278255 0.098872915
-0.06984593 0.10149136 -0.005338937 -0.05558312 0.05034429 -0.06156434 0.022582978 0.093594655
0.05346769 0.070835024 0.0067570657 -0.113287196 0.08268461 -0.026884064 -0.0642823 -0.11566067
-0.10660061 0.026121482 0.107626066 0.03044483 -0.10122648 -0.121259004 0.06306434 0.029803082
-0.08313516 -0.01504235 -0.102238074 -0.028312996 -0.0134736 0.08762269 -0.12456608 0.11659899
0.05449219 -0.079080895 0.088435814 0.07613757 -0.07936865 -0.02401936 -0.067939624 0.02754037
0.120962724 -0.09534378 0.09789206 -0.09549534 0.05357878 -0.021603718 0.057033792 -0.086310044
0.10217561 -0.09840475 0.04661657 0.12117453 -0.03279957 -0.06747545 0.016588911 -0.017457232
0.002600044 -0.071777806 0.11133222 0.106922075 0.048936307 -0.058812693 -0.09597443 0.087970674
0.014328644 0.059109718 -0.0007197261 -0.084089026 0.07118137 0.0020973831 0.039101005 -0.067930266
00000000: e6a9 cf3d 4098 09bc b490 c13d 5037 f9bd
00000010: 7656 823d 80a0 693c 1270 81bd 8060 ffbb
00000020: 00a9 b7bc 5811 093d 0880 083d f44d b03d
00000030: 3428 603d fc27 cdbd 1484 64bd d448 04bd
00000040: d067 0d3d 2845 6dbd a8a7 863c 4093 b03c
00000050: 8892 4cbd 0812 d73c b0a8 353d 1286 ccbd
00000060: 540c a83d 20d5 11bc a046 e43d 64e1 40bd
00000070: 3015 16bd 40f0 44bb cc03 85bd 8c18 9bbd
00000080: 5614 b43d 468e 943d d09f 8a3c ece7 38bd
00000090: 466b dbbd f80d dfbd a043 853b 56e2 85bd
000000a0: 40ec ff3b 6490 c33d 3003 88bd 0034 993c
000000b0: c865 8c3c 0088 7a3d 94a3 b6bd 50da 55bd
000000c0: 5c9f 2abd aafe d1bd ac49 69bd f099 353c
000000d0: 9c2c 833d fc69 7fbd d0a3 5dbc e27d ca3d
000000e0: 620b 8fbd b4da cf3d 40f2 aebb 20ab 63bd
000000f0: d035 4e3d e42a 7cbd f0ff b83c 8eae bf3d
00000100: f000 5b3d f411 913d 606a dd3b 1e03 e8bd
00000110: 8c56 a93d f83b dcbc 70a6 83bd 80df ecbd
00000120: 6c51 dabd b8fc d53c 0e6b dc3d 7067 f93c
00000130: d44f cfbd a456 f8bd e027 813d 9825 f43c
00000140: c442 aabd 3074 76bc 3262 d1bd a8f0 e7bc
00000150: 60c0 5cbc 8673 b33d 801c ffbd 74cb ee3d
00000160: 3433 5f3d 2af5 a1bd d61d b53d 04ee 9b3d
00000170: 088c a2bd 40c4 c4bc ee23 8bbd 589c e13c
00000180: 4ebb f73d 9a43 c3bd a27b c83d 1093 c3bd
00000190: 6c75 5b3d 48fa b0bc 449c 693d 52c3 b0bd
000001a0: 7241 d13d 6e88 c9bd 04f1 3e3d 5a2a f83d
000001b0: d858 06bd 9230 8abd 78e5 873c 7802 8fbc
000001c0: 8065 2a3b 3e00 93bd 2602 e43d f6f9 da3d
000001d0: 7071 483d 94e5 70bd 3e8e c4bd f829 b43d
000001e0: b0c2 6a3c 081d 723d 00ac 3cba de36 acbd
000001f0: 8ac7 913d 4074 093b 6028 203d 061f 8bbd

hamiltonian.amplitude_projections.0.bias f4 [2]
0.09242503 0.114619255
00000000: 5649 bd3d 80bd ea3d
