arkhe-os-genesis-v1.0/config/glp/model.pt (torch, 68553 bytes, 4 tensors)

encoder.0.weight f4 [64, 128]
000000 33 6e 26 3d 46 1f 16 bd 94 83 bf bc 91 48 a2 bd
       0.040632438 -0.03665092 -0.023378171 -0.07923997
000010 6e 4e ea 3c ca f7 97 3d b0 ba ee bc e1 0a 2b 3a
       0.028601851 0.07420309 -0.029141754 0.00065247534
000020 59 46 d0 3c 2e ec ab bc 0e cf 58 bd d4 91 8f 3d
       0.02542417 -0.020986643 -0.052931838 0.070102364
000030 29 78 23 3d 1a ea 30 3c b4 b2 45 bd ca 77 0d 3d
       0.039909516 0.010798002 -0.048266128 0.034538068
000040 97 4f a9 3c d8 3e 35 bd 5e 8f e7 3c 6b cb 3f 3d
       0.020667834 -0.044249386 0.028266605 0.046824854
000050 5f f7 0c bd 04 1b 95 3d 25 fd 52 bd d7 db 0e bd
       -0.0344156 0.072805434 -0.05151095 -0.034877624
000060 73 5d 00 3d d0 09 98 3d 14 a7 1d bd 8e 5f 66 bd
       0.03133912 0.074237466 -0.038489416 -0.05624347
000070 e1 e9 15 3d ca 2a 42 3d 38 f3 94 3c e4 97 a9 3c
       0.036599997 0.047404088 0.018182382 0.02070231
000080 11 4e 9e bd e5 df d5 bb 0f 63 6e bd 76 a4 45 3d
       -0.07729734 -0.0065269344 -0.05819994 0.048252545
000090 b5 1b ec 3c 1d 84 a5 bc 8e 23 f0 3c 3b 41 70 bd
       0.028821805 -0.020204598 0.029313829 -0.05865596
0000a0 96 ba 48 3d 7d e7 26 3d 31 3a 07 bd 4e 40 7c 3c
       0.049006067 0.04074811 -0.03301448 0.015396191
0000b0 be 0e 34 3d 9b 7c 76 3d a6 95 83 3d 87 3d 22 3d
       0.04395937 0.060177427 0.064250275 0.03960946
0000c0 3c 76 a1 bc a0 2a b5 bc 04 e7 c3 3c 87 c5 4c 3d
       -0.019709699 -0.022115052 0.023913868 0.049993064
0000d0 03 e2 5a 3d b5 e3 94 bc 32 44 87 bd 58 b9 a5 3c
       0.053438198 -0.018174985 -0.06604804 0.02022998
0000e0 5d a5 c8 3c 36 26 b1 3d 5d a2 87 bd 80 9e 87 bb
       0.024492914 0.08649866 -0.06622765 -0.0041387677
0000f0 fe 4e 8f bd 76 7c 91 bd 51 c7 20 bd d2 84 8b bd
       -0.069974884 -0.07103817 -0.039252583 -0.06812443
000100 10 4a c7 3c 03 47 aa bc 4a e0 eb 3c d9 fa 3d 3d
       0.024327308 -0.020785814 0.028793473 0.046381805
000110 63 3d 0d 3d b0 03 9c 3c a1 35 a4 3c ab a3 47 3d
       0.03448237 0.019044727 0.020045104 0.04874007
000120 5e 8c 62 bd c8 59 4e bd e5 45 17 3d 4f a6 5c bd
       -0.055309646 -0.05037859 0.03693189 -0.05386954
000130 33 6e 7a 3d 57 8c 00 bd 96 bd 89 bd 37 34 63 bd
       0.06114025 -0.03138384 -0.06725614 -0.055469718
000140 cd 5f 18 3d d0 53 5b 3b ad 38 93 bd e9 12 32 bc
       0.037200738 0.0033466704 -0.071885444 -0.010868766
000150 47 ec a1 3d eb f6 62 3d 2d 01 21 bd 69 02 96 3d
       0.079063945 0.05541126 -0.039307762 0.073246785
000160 27 af 50 3b f0 ea 3d bd cb e7 9d bb be 2e 23 3d
       0.003184268 -0.046366632 -0.0048188916 0.0398395
000170 64 f2 b1 bd 8b 3e ea 3a 34 84 b0 bd 09 b1 25 3d
       -0.086888105 0.0017871422 -0.08618966 0.040452037
000180 85 21 e8 bc 1b 18 9c bb d2 80 1b bd 7a fa 96 3c
       -0.028336296 -0.004763616 -0.03796465 0.018429983
000190 07 57 8b bd 1d a9 9c bd a3 b8 b1 3d f8 35 7d 3d
       -0.068037085 -0.07649443 0.08677795 0.061819047
0001a0 21 5f 80 3d 1e a0 93 bb e2 92 49 3d 90 67 a1 bd
       0.062681444 -0.0045051714 0.049212344 -0.07881081
0001b0 c6 c7 21 3c 30 61 b1 bd 55 f6 9b 3d 64 93 b4 3c
       0.00987429 -0.08661115 0.076153435 0.022042938
0001c0 78 b5 44 3d 41 59 3f bd 75 a0 a2 3d 3b 11 1f bd
       0.048024625 -0.04671598 0.07940761 -0.03883479
0001d0 9b 29 a7 3d a1 18 e9 bc 86 61 83 bd 61 fc d1 3c
       0.081622325 -0.028454127 -0.064150855 0.025633039
0001e0 c6 70 a1 3d 5d ce a3 bd 72 c2 82 bd f1 0e 9c bd
       0.07882838 -0.07998345 -0.06384744 -0.07620037
0001f0 e7 00 87 3c 16 36 06 bd 6d e8 b3 bb ee 5e 70 bd
       0.016479922 -0.032766424 -0.005490354 -0.058684282
000200 43 1c 09 bd 41 84 c1 3b 4a 54 65 3c 29 06 40 3d
       -0.033474218 0.0059056585 0.013997147 0.046880875
000210 dc 3e fe bc af 23 9b bd 06 4a 31 3d 2e b8 11 bd
       -0.031035833 -0.075751655 0.043283485 -0.035576038
000220 7b c2 d6 bc ca 77 96 bd e2 f3 9e 3d d1 71 b0 3d
       -0.026215782 -0.07347067 0.07761361 0.08615459
000230 99 80 47 bd aa cf 64 bd c3 1b 85 bc a7 7c 95 bd
       -0.048706625 -0.055862106 -0.01624859 -0.07299166
000240 9e 73 9e bd 62 7f e0 bc 76 b6 79 3d 1a 3c 79 bd
       -0.07736896 -0.02740449 0.060965024 -0.060848333
000250 c8 6a 09 3d 57 4e e2 bc 69 27 d0 bc 53 d2 ac 3d
       0.0335491 -0.027625246 -0.025409417 0.08438554
000260 2a 07 45 bc db a5 ba 3b cb 7b 21 3d 14 8c 85 3d
       -0.012025634 0.005696041 0.0394247 0.065208584
000270 a8 f2 85 3c e5 34 9f bd b3 1c 60 3c 52 0f e2 3c
       0.01635106 -0.07773761 0.013678717 0.027595196
000280 03 ab c5 bc 0f 91 76 bd 74 c4 9a 3c a3 30 b9 3c
       -0.024129396 -0.060196932 0.018892504 0.0226062
000290 d6 a0 54 3d 0c fc a3 bc 53 36 5b bd f9 76 74 bd
       0.051911198 -0.020017646 -0.053518604 -0.059683774
0002a0 b2 dc 48 3d 84 8a 4c 3d f2 de a9 bd ef d0 a9 bd
       0.049038596 0.049936786 -0.082944766 -0.08291804
0002b0 b7 b4 5e 3d e8 ff d2 bc 0f 85 a8 bd 53 b7 8e 3b
       0.05437156 -0.025756791 -0.08228504 0.00435535
0002c0 2c a8 56 3d 0f a8 44 bc 2a 40 cf 3c e8 9c 8d 3d
       0.052406475 -0.012002959 0.02529915 0.06914693
0002d0 17 8a e2 3c ce e8 f6 bc e9 22 83 3c 15 c0 2c bd
       0.027653737 -0.030140307 0.016007857 -0.04217537
0002e0 82 2b 90 bd 21 e0 1c ba ca 64 ac 3c 16 af 20 3d
       -0.070395485 -0.00059843255 0.021044154 0.039229475
0002f0 e3 eb 46 3d eb 51 8f 3d c1 fd 94 3d ba b1 22 3d
       0.048564803 0.069980465 0.07274962 0.039720275
000300 c8 bd b2 bd e8 be a1 3d 1a 50 e3 bc 0c 5c 6b 3d
       -0.08727604 0.078977406 -0.027748156 0.05746083
000310 63 50 44 bd 21 b4 99 3d fc 24 9d 3d 9d 38 33 3d
       -0.047928225 0.0750506 0.0767307 0.043755163
000320 5c d9 a6 bc 01 0a cb ba b3 0b 89 3d af 79 38 bd
       -0.020367317 -0.0015490652 0.066916846 -0.04503792
000330 2c 3f 4b bd 47 7b 2b bd c3 43 0f 3d b4 87 a7 bc
       -0.049620792 -0.041865613 0.034976732 -0.02045045
000340 a8 24 d7 3c 19 73 75 bc 39 72 b4 bd da ba b4 bd
       0.026262596 -0.014981055 -0.08810849 -0.088247016
000350 90 47 80 3d 74 fb 2f 3c f5 62 82 3d e9 5c ed bc
       0.062636495 0.010741103 0.06366531 -0.028974967
000360 e3 06 dc 3b 19 ac 8d 3d 03 82 15 3d 76 ce af 3c
       0.006714688 0.06917591 0.036500942 0.021460753
000370 34 64 99 bb ce 11 32 3d ba 3a 6f 3d 33 26 9e bd
       -0.0046811346 0.04347401 0.058405615 -0.0772213
000380 27 29 81 bd 15 6c 9d bd ed b6 a5 3d 82 07 89 bd
       -0.06306677 -0.07686631 0.08091531 -0.06690885
000390 b0 6c 02 3d 42 73 8e bd 01 76 49 3d 00 3e 83 bb
       0.031841934 -0.069555774 0.049184803 -0.0040051937
0003a0 33 af 43 bd 86 e1 e7 bc ef 16 a8 3d 97 88 85 bd
       -0.047774505 -0.02830578 0.08207499 -0.06520193
0003b0 6d 20 3e 3d 00 08 39 3d ab 5a 0a bd 02 83 cb bc
       0.046417642 0.045173645 -0.033777874 -0.024842743
0003c0 cc 1d d5 3c e0 c6 76 bd 62 07 95 bd 79 b8 8d 3d
       0.026015185 -0.060248256 -0.07276799 0.06919951
0003d0 76 7f 4d bc c3 9e a4 3d 03 81 9e 3d 23 c2 1b 3d
       -0.012542596 0.08038094 0.07739451 0.03802694
0003e0 ce f4 43 3d 1e 74 aa bd 45 3a 78 39 70 16 a2 bc
       0.047840886 -0.08322929 0.0002367283 -0.01978609
0003f0 54 c0 62 bd b3 ec 4b bd 91 a6 90 3d e1 57 8a bd
       -0.0553592 -0.04978628 0.0706302 -0.06755043

encoder.0.bias f4 [64]
000000 67 b4 54 bd c6 ae ad 3d f2 9c 8f bd 0e f4 65 39
       -0.051929858 0.08480601 -0.07012357 0.0002193006
000010 87 6c 14 3d e8 5e 5b bd ba be 8e bc 58 04 63 3d
       0.036236312 -0.053557307 -0.01742493 0.055424064
000020 d6 0a 96 3c 80 7b 6c bd 0b 22 08 bd ec 19 ab 3d
       0.018315714 -0.057734966 -0.03323559 0.083545536
000030 98 10 9c 3c 7c 86 67 3c f2 c9 5d bd f2 4d 87 3d
       0.019050881 0.014131185 -0.05414767 0.06606664
000040 4b 5f 24 bd 1c b5 84 3d dd b4 8f 3d a8 04 6b 3d
       -0.04012994 0.06479856 0.07016919 0.057377487
000050 e2 c3 6d 3d 0f 52 8d ba d9 bc 0a bd ba 22 39 bd
       0.058048137 -0.0010781902 -0.033871505 -0.045199133
000060 60 34 3a 3d d1 58 6a bd a2 ab a3 3c fe 93 af bd
       0.045460105 -0.05721361 0.019979302 -0.08573149
000070 64 fa 89 3d 1e a1 53 3d e7 54 4d bc 51 f5 1f bd
       0.06737211 0.051667325 -0.012532449 -0.03905231
000080 96 9e b4 bd 93 32 a1 bb 9d e6 af bc e4 56 9d 3d
       -0.0881931 -0.004919359 -0.02147227 0.07682589
000090 c4 d8 62 bd 00 1c da bc 66 a1 a7 bd 30 21 fd 3c
       -0.055382505 -0.02662468 -0.08185081 0.030899614
0000a0 ff b7 ed 3b 76 09 49 3d 93 a9 ad bd 52 15 1c bd
       0.0072546 0.04908129 -0.08479609 -0.03810627
0000b0 81 21 45 3d 6a 0b 8f bd e9 a0 1e 3d 58 28 8a 3d
       0.048127655 -0.06984599 0.038727675 0.06745976
0000c0 26 7d 92 3d c1 41 e9 bc 82 e0 99 3d 57 ca 53 bc
       0.071527764 -0.028473737 0.075135246 -0.01292666
0000d0 49 90 65 3d f0 76 3b 3d 38 a1 96 bd 1f a9 fe 3b
       0.056045804 0.045767725 -0.07354969 0.0077716256
0000e0 ec 15 06 3c 91 66 99 bc 88 74 26 3d 63 9f 91 3d
       0.0081839375 -0.018725665 0.040638477 0.07110479
0000f0 b9 cd 70 bd 13 f0 95 bc 81 22 8b bd 39 66 9a bd
       -0.058789942 -0.018302953 -0.067936905 -0.07539029

encoder.2.weight f4 [128, 64]
000000 18 87 57 3d f0 e5 a7 3d cc 13 a6 bd 86 3c a9 bd
       0.05261907 0.08198154 -0.08109245 -0.08263497
000010 76 98 8a bd c0 43 43 bd 42 3c c3 bd 10 5e e6 bc
       -0.06767361 -0.047672033 -0.09532978 -0.028121024
000020 a4 51 b3 bd 90 57 4c bd 58 77 a9 3d aa 16 a2 bd
       -0.08755806 -0.049888194 0.08274716 -0.07914479
000030 58 fa 98 3c 48 cf d9 bc 74 79 ea 3d cc 7f 12 3d
       0.01867406 -0.026588097 0.114489466 0.035766408
000040 60 4e ef 3b dc 90 24 3d f0 1c 7e bc 50 e4 c1 bc
       0.007303044 0.04017721 -0.015509829 -0.023668438
000050 92 3f ac 3d 9c eb 87 3d d0 bc e4 bd 96 fb 82 3d
       0.084105626 0.06636736 -0.111688256 0.063956425
000060 30 7b 65 3c ac 48 25 bd 8c 73 c4 bd 30 56 1a bd
       0.014006421 -0.04035251 -0.09592351 -0.03767985
000070 b2 1c ef bd 20 8b 72 3c 30 97 73 3c a4 52 c8 3d
       -0.11675395 0.014803678 0.014867589 0.097813874
000080 ec da f6 bd 76 64 8d 3d 58 f1 e6 bd b0 82 77 bd
       -0.12053475 0.06903927 -0.112765014 -0.060427368
000090 80 97 f3 3a 64 f0 75 bd 60 11 f2 3d b0 08 25 3c
       0.0018584579 -0.060043707 0.1181972 0.010072872
0000a0 a6 36 e8 3d c0 72 f5 bb 08 2d f4 3c 74 5d 05 3d
       0.11338548 -0.007490486 0.029806629 0.032559827
0000b0 7e 3e d3 bd 92 a5 f6 3d 80 58 db 3d 80 ee 79 bb
       -0.10314654 0.12043299 0.107102394 -0.0038136542
0000c0 70 cb dc 3c 14 19 f4 3d a0 4b 8d bc d4 57 7b 3d
       0.026952475 0.11918846 -0.017247975 0.061363056
0000d0 92 75 86 3d 70 53 6c bd 4c 15 7a bd d0 d8 28 bc
       0.065653935 -0.05769676 -0.061055467 -0.010305598
0000e0 b8 fa e8 bc 6c ef 94 3d 00 98 27 3b 30 64 fe 3c
       -0.028439865 0.072722286 0.0025572777 0.031053632
0000f0 fc 79 fd 3d 30 69 db 3c e6 d1 ba 3d 72 73 ce 3d
       0.12376782 0.026783556 0.09122066 0.10080613
000100 50 6a 91 bc 40 37 46 bd 92 92 81 bd 70 7f cf bc
       -0.017750889 -0.048392534 -0.06326784 -0.025329322
000110 e0 83 4f bc 78 20 cb 3d 4a 35 eb bd 2a 1e e4 bd
       -0.012665719 0.09918302 -0.114847735 -0.11138566
000120 8c 34 5e bd 04 fb fd 3d be 92 af bd 90 16 e4 3c
       -0.05424933 0.12401393 -0.08572911 0.02784279
000130 ea 15 ce 3d 8c ce c9 bd ce 24 94 bd c4 71 0f bd
       0.100627735 -0.09853849 -0.072335824 -0.035020605
000140 00 2d d5 3a 7c dc d8 bd 20 71 b8 3b 40 98 55 bd
       0.0016264021 -0.10588929 0.00562872 -0.05214715
000150 be eb 8c 3d 32 c1 d1 3d 80 37 f7 bb 02 78 f6 bd
       0.06880902 0.10241927 -0.007544458 -0.120346084
000160 ac 63 13 bd 70 8b 8b 3c 60 ff 96 bb a4 20 05 bd
       -0.035983726 0.017034262 -0.00460808 -0.03250183
000170 b0 f1 18 3c 60 b2 7d 3d 8c 83 4a 3d b0 f5 02 3d
       0.009334967 0.06193769 0.04944186 0.031972587
000180 10 df 51 bc 5c 25 28 bd fe 33 d3 bd a0 a4 fd bb
       -0.01280953 -0.041051254 -0.10312651 -0.007740572
000190 10 37 68 3c 60 e4 22 bc 90 58 e7 bc 86 4c ce bd
       0.014173284 -0.009942144 -0.028240472 -0.100731894
0001a0 8e 27 cf 3d d0 26 5b bd 90 7e 66 3d 0c 9a af 3d
       0.10114966 -0.05350381 0.056273043 0.08574304
0001b0 8c 1a ae 3d 58 89 94 bd 9a e6 86 bd cc 4f 20 3d
       0.08501157 -0.07252759 -0.065869525 0.0391386
0001c0 00 38 6a 3c 50 b4 39 3c 1c 7e 8b 3d 3c d5 e4 3d
       0.014295578 0.011334494 0.06811163 0.11173484
0001d0 de 5a 90 bd e0 47 e5 bd 92 47 d4 3d 60 da 39 bc
       -0.070485815 -0.1119535 0.103652135 -0.011343569
0001e0 2e 3e 98 3d 04 5b 21 3d 4a d7 e5 bd ea 0b 92 3d
       0.07433735 0.03939344 -0.11222704 0.07131179
0001f0 4c 95 cb bd 58 c2 45 3d 9c 46 3c bd 0c e2 68 3d
       -0.099405855 0.048281044 -0.045965776 0.0568562
000200 d8 cf 99 3c 44 73 5a bd 80 55 37 bb d0 2a 3b bc
       0.018775865 -0.053332582 -0.0027974546 -0.0114237815
000210 54 7d e4 3d 24 14 85 bd c8 33 b0 bc 0e 04 9b 3d
       0.11156717 -0.06497982 -0.021509066 0.07569133
000220 b8 ff 65 3d 78 19 ce 3c 80 f4 a5 ba 68 95 f7 bc
       0.056152076 0.025158629 -0.0012661368 -0.03022261
000230 54 29 40 bd 1a 13 ed bd 1c 0e 3b 3d 0c 9e 68 bd
       -0.046914414 -0.11575909 0.045667753 -0.05679135
000240 30 1e 07 bd cc 0f 90 bd 18 6d c4 3d ce 6a d6 3d
       -0.032987773 -0.07034263 0.095911205 0.1046959
000250 00 4a e9 3c d6 53 ad bd 98 81 6b 3d b2 f6 92 3d
       0.028477669 -0.08463256 0.057496637 0.0717596
000260 c0 bf 44 bd 28 88 08 bd 68 be dc 3d 52 0e e9 bd
       -0.04803443 -0.033332974 0.107785046 -0.113796845
000270 84 24 04 3d 12 4d db bd 34 08 ca 3d c8 0e c3 bd
       0.032261387 -0.10708059 0.09864846 -0.09524304
000280 28 8a 27 bd 8c a0 02 bd 2a e1 d2 bd bc 4f 76 3d
       -0.04090324 -0.03189139 -0.10296853 0.060134634
000290 3e 6f a3 bd 14 63 78 bd ca e4 c6 3d e8 06 4f 3d
       -0.07980202 -0.060641363 0.09711607 0.050543696
0002a0 80 54 f3 ba 3e 6a fe bd bc 73 3a bd 40 be 7c 3b
       -0.0018564612 -0.12422608 -0.04552053 0.0038565546
0002b0 ca 09 83 3d 00 d3 70 3c 88 49 66 3d 34 ce 7a bd
       0.063983515 0.014698744 0.05622247 -0.061231807
0002c0 38 86 bd bd 1c 29 47 bd 7a e0 ef 3d 4c 19 ac bd
       -0.09254116 -0.04862319 0.117127374 -0.084032625
0002d0 84 bd 21 bd c0 36 a8 3d 60 25 bf 3c c4 46 d9 3d
       -0.039487377 0.08213568 0.023333251 0.106092006
0002e0 98 70 f6 bd 0c a7 f4 bd 4a 60 f2 bd 48 52 cd bc
       -0.12033194 -0.11945924 -0.11834772 -0.025063649
0002f0 f8 e5 5d 3d 50 03 3d 3c 38 34 84 3d 6a c6 b1 3d
       0.054174393 0.011536434 0.064552724 0.086804226
000300 fe ca f3 3d a8 ef d4 3d c4 cc 16 3d 44 08 1d 3d
       0.11903952 0.10397273 0.036816373 0.03833796
000310 7c 31 5d 3d 40 17 b1 bc f4 35 8d bd 28 61 f1 bc
       0.05400227 -0.021617532 -0.06895056 -0.029465273
000320 5a 2f b2 bd 48 10 35 bd 72 73 c1 3d ec bc 8b 3d
       -0.08700438 -0.04420498 0.094458476 0.06823143
000330 2c 4d 7f 3d 5c ed b2 bd 60 40 36 3c 00 da 81 bc
       0.062329456 -0.08736679 0.011123747 -0.01585102
000340 40 04 54 3c 24 03 c6 bd f2 e9 ba bd 2c 47 c4 bd
       0.012940466 -0.09668568 -0.09126653 -0.095838875
000350 9c 55 31 bd d8 66 a7 3d 88 15 12 3d 98 e9 03 bd
       -0.043294534 0.08173913 0.035665065 -0.032205194
000360 70 6a 32 3c 2c f1 75 bd 38 f6 f1 3d fc 7f bc bd
       0.0108896345 -0.060044453 0.118145406 -0.092040986
000370 10 85 7c bc e2 2c f3 3d 98 7b ad 3c 1c ea 1d 3d
       -0.015412584 0.11873795 0.021177098 0.038553342
000380 ee d8 af bd 30 87 ce bc d0 9f 52 bd a0 4f a5 bb
       -0.08586298 -0.025210947 -0.05142194 -0.0050448924
000390 5a 3d a7 bd 94 66 73 3d b8 2d e0 bd 9c d4 4b bd
       -0.08165999 0.059423998 -0.1094622 -0.049763307
0003a0 b0 31 3a bd 2e 80 80 3d 38 46 dd 3d 9c 34 10 3d
       -0.045457542 0.06274448 0.10804409 0.035206422
0003b0 f8 27 14 3d 80 cf b2 3c f4 4c be bd ea 9b 98 bd
       0.03617093 0.02182746 -0.092920214 -0.07451613
0003c0 c4 8c 09 bd fe e7 e0 bd 50 6a 17 3d a8 e4 f5 bd
       -0.03358151 -0.10981749 0.036966622 -0.12006503
0003d0 2a a2 a6 3d 78 44 fa 3c 28 52 97 3c a0 1d e1 bb
       0.08136399 0.030550227 0.018471792 -0.0068699867
0003e0 3c 2c ce bd 10 13 df bc 5a 06 e7 3d 38 19 ae bc
       -0.10067031 -0.02723077 0.11280508 -0.02125226
0003f0 20 63 63 3c 66 49 a5 bd 00 45 86 3d ac 02 9f 3d
       0.013878614 -0.0807064 0.065561295 0.077641815

encoder.2.bias f4 [128]
000000 d0 e4 20 3c 9c bf 6c bd 6c b4 11 bd 24 3e 44 3d
       0.009820178 -0.05779992 -0.035572454 0.047910824
000010 c4 08 a8 bd f8 61 8b 3d 92 7c f5 3d 76 7b d3 3d
       -0.08204797 0.068057954 0.119866505 0.10326283
000020 54 a2 39 bd 9c 60 e9 bd 00 1f 5a 3a c4 dd b3 3d
       -0.045320824 -0.1139538 0.00083206594 0.08782533
000030 b0 92 e9 3d ce e1 8f bd ba 28 c2 bd 72 48 fa bd
       0.114049315 -0.07025491 -0.09480424 -0.12220849
000040 5e 63 c6 3d b0 f1 fc bd 3a a5 ff bd 10 6e 76 3c
       0.096869215 -0.12350786 -0.12482686 0.015040889
000050 aa d2 f6 bd 70 b5 0c 3c f0 ae c1 bc 24 9d 1c bd
       -0.120519 0.00858818 -0.023642987 -0.0382358
000060 ea da ce bd 90 b4 ec bd 26 a0 a3 bd f0 54 a3 bd
       -0.10100348 -0.11557877 -0.0798953 -0.07975185
000070 60 b8 7a bc 50 03 76 bd 90 ad 0c bd 4c 8d cd bd
       -0.0153027475 -0.060061753 -0.03434521 -0.10036716
000080 92 7f b5 3d 34 16 5b bd fe 03 cd 3d 04 be 4c 3d
       0.08862223 -0.05348797 0.10010527 0.0499859
000090 94 05 dd bd 20 e1 6b 3d 10 9e 66 bd dc 50 c8 3d
       -0.107920796 0.057587743 -0.056303084 0.09781048
0000a0 f0 7b 2f bc aa f4 ba bd a4 5e 58 3d 66 a4 ca 3d
       -0.010710701 -0.09128697 0.05282463 0.09894638
0000b0 78 39 d3 3d 00 a2 94 3c 34 f9 ba 3d dc a7 fa bd
       0.10313696 0.018143654 0.09129563 -0.12239048
0000c0 f4 37 80 bd 00 b0 20 3d de d5 89 3d 0e 93 f4 bd
       -0.06260672 0.039230347 0.06730245 -0.11942111
0000d0 04 4a a1 3d e8 06 70 3d 40 53 74 bd 6c 5e 42 bd
       0.078754455 0.058600336 -0.059649706 -0.04745333
0000e0 fe 06 fd 3d 38 57 84 3c d8 43 e1 bc 00 a1 29 ba
       0.12354849 0.01615487 -0.02749817 -0.0006470829
0000f0 06 2c fc bd b0 76 f3 bd 46 43 e0 bd 6c 41 c4 3d
       -0.12313084 -0.11887872 -0.109503314 0.09582791
000100 b8 f5 60 bd 96 51 cc bd d0 b0 dd 3d ba 7b db bd
       -0.054921836 -0.09976499 0.1082474 -0.10716958
000110 90 c1 91 3d 02 af 8f 3d 64 54 db bd 50 0d c6 3d
       0.07116997 0.07015802 -0.107094556 0.09670508
000120 cc e8 0b bd 68 56 17 3d 4c b3 54 3d fe 5b 90 3d
       -0.03415756 0.036947638 0.051928803 0.07048796
000130 7e 4a b8 bd 20 03 a6 bc c0 31 83 3b 0a 10 8c bd
       -0.08998583 -0.020265162 0.0040037334 -0.06838997
000140 98 29 05 bd 7a f7 88 bd 24 2c b7 bd 86 84 85 3d
       -0.03251037 -0.066878274 -0.08943966 0.065194175
000150 3c 48 c8 bd a2 d3 d4 3d 80 30 f0 ba 88 57 8f bc
       -0.097794026 0.10391928 -0.0018325001 -0.017497793
000160 92 2d c5 bd 98 12 54 3d a0 14 cd bb 04 ed 93 3d
       -0.096278325 0.051775545 -0.006258562 0.072229415
000170 98 26 88 3c 2a 5c f8 3d 60 75 c1 bd 7a 7e f5 3d
       0.016619965 0.12126954 -0.09446216 0.11987014
000180 30 39 13 3c b0 af 29 3d 90 46 8b 3d 76 ad ad bd
       0.0089858025 0.041427314 0.06800568 -0.08480351
000190 a0 1a 1c 3d ec bf d6 3d 00 85 45 ba 74 36 1a 3d
       0.03811133 0.10485825 -0.0007534772 0.037649587
0001a0 60 02 ed 3c cc df 64 bd 5c 7f 7f 3d 00 3c 7c bd
       0.028931797 -0.05587749 0.06237732 -0.061580658
0001b0 22 2c 9b 3d a8 d9 48 3d f4 ac cc 3d 9e 0f f7 bd
       0.07576777 0.0490357 0.09993926 -0.120635256
0001c0 30 09 08 bd e0 14 f5 3b 96 a2 f6 3d 66 57 fd 3d
       -0.033211887 0.007479295 0.120427296 0.123701856
0001d0 28 ab 6a bd b8 08 82 bd 94 3e b9 3d f0 28 ef 3d
       -0.057292134 -0.06349319 0.09045139 0.1167773
0001e0 dc 03 92 3d 1e 64 a7 3d a8 d0 a6 3c fc 9f f0 3d
       0.07129642 0.08173393 0.020363167 0.117492646
0001f0 06 8e e5 bd ba cd 90 3d 34 ec e4 bd 00 96 d1 ba
       -0.112087294 0.07070489 -0.11177865 -0.0015990138
